…
The most challenging aspect of implementing BraggNN was mini-
mizing latency while satisfying compute resource constraints (LUTs,
DSPs, BRAMs) and achieving routing closure, i.e., not exceeding
available routing resources and avoiding congestion. We made two
design choices to reduce resource consumption. The first was to
reduce the precision used for the floating-point operations, from
half precision to FloPoCo (5,4)-precision (5-bit exponent, 4-bit man-
tissa), a choice justified by examination of the distribution of the
weights of the fully trained BraggNN (see Figure 7).BraggNN(ğ‘ )(
(cnn_layers_1): Conv2d( ğ‘ Ã—16, kernel= 3, stride= 1)
(nlb): NLB(
(theta_layer): Conv2d( ğ‘ Ã—16,ğ‘ Ã—8, kernel= 1, stride= 1)
(phi_layer): Conv2d( ğ‘ Ã—16,ğ‘ Ã—8, kernel= 1, stride= 1)
(g_layer): Conv2d( ğ‘ Ã—16,ğ‘ Ã—8, kernel= 1, stride= 1)
(out_cnn): Conv2d( ğ‘ Ã—8,ğ‘ Ã—16, kernel= 1, stride= 1)
(soft): Softmax()
)
(cnn_layers_2): Sequential(
(0): ReLU()
(1): Conv2d(ğ‘ Ã—16,ğ‘ Ã—8, kernel= 3, stride= 1)
(2): ReLU()
(3): Conv2d(ğ‘ Ã—8,ğ‘ Ã—2, kernel= 3, stride= 1)
(4): ReLU()
)
(dense_layers): Sequential(
(0): Linear(in_features= ğ‘ Ã—50, out_features= ğ‘ Ã—16)
(1): ReLU()
(2): Linear(in_features= ğ‘ Ã—16, out_features= ğ‘ Ã—8)
(3): ReLU()
(4): Linear(in_features= ğ‘ Ã—8, out_features= ğ‘ Ã—4)
(5): ReLU()
(6): Linear(in_features= ğ‘ Ã—4, out_features= 2)
(7): ReLU()
)
)
Listing 5: BraggNN model architecture for scaling factors
s=1,2 .
Reducing the precision enabled the second design choice, to
eliminate BRAMs from the design, since, at the lower precision, all
weights can be represented as registered constants. The reduced
precision also drove the Vivado synthesizer to infer implementa-
tions of the floating-point operations that make no use of DSPs,
…
